Browser/lib/my_model.tflite (tflite, 5400 bytes, 5 tensors)

arith.constant f4 [1, 16]
000000 af 2c 6f 3f 44 e3 0d 3f d8 71 5f bf b3 ad 7e bf
       0.93427557 0.55424905 -0.87283087 -0.99483794
000010 45 00 73 be 08 35 06 bf 4e 2b 1f bf 41 17 e8 be
       -0.23730572 -0.5242467 -0.6217545 -0.4533024
000020 9b 99 46 bf 41 d0 14 3f 6f da 06 be 63 8a 21 3f
       -0.77578133 0.5813027 -0.13169263 0.63101786
000030 0f 87 50 3f a7 57 a4 3e d2 46 47 3e 6b ac b0 3e
       0.81456083 0.32098123 0.1946061 0.34506544

arith.constant1 f4 [16, 32]
000000 19 28 e7 bd 24 1f 31 3e 23 d4 21 3e ec c6 05 3e
       -0.11286945 0.17297035 0.1580358 0.13064164
000010 93 10 56 bd 9c c6 7e be 78 ef 3f bd 8f 9a f4 3d
       -0.0522619 -0.24880451 -0.046859235 0.11943542
000020 33 c4 f2 3c d0 87 87 bd 6e 67 c5 be 84 c8 0f 3e
       0.02963457 -0.06617701 -0.38555473 0.14041334
000030 ce 19 59 3e 13 38 64 3f 7b 34 c6 bd 60 57 13 3d
       0.2120125 0.8914806 -0.096779786 0.035972
000040 d4 5a 51 be 08 6a 87 be f9 15 e9 3e 51 b0 c1 be
       -0.20444804 -0.26448083 0.45524576 -0.3782983
000050 ea 27 05 3f 9d 1c 09 3f bf 5d ae 3e dc d6 30 be
       0.5201403 0.53559285 0.34055898 -0.17269462
000060 1c 96 d5 3d 15 50 0d bd 84 65 ff 3c 6c 6d c8 be
       0.10429022 -0.0345002 0.031176336 -0.39145982
000070 ec f0 b8 3e f2 3f 10 3e 77 16 84 3d b0 88 75 3e
       0.3612131 0.14086893 0.06449597 0.23977923
000080 d0 1c 01 3f c3 fc 8e 3d 77 8d 0a 3d 53 1b 4f bc
       0.5043459 0.06981804 0.033826318 -0.012640792
000090 a0 a7 bc 3e 1a 98 d8 be d9 81 8d 3e 7f 7a 76 bd
       0.36846638 -0.42303544 0.27638128 -0.060175415
0000a0 5f 82 f8 3d 61 97 94 be 5d ee a8 bc 08 d2 dc 3d
       0.12134241 -0.29021743 -0.020621473 0.10782248
0000b0 87 4e f4 bd 6b 1a 70 3e dc 37 b6 bc 80 e2 32 3e
       -0.119290404 0.23447578 -0.022243433 0.17469215
0000c0 13 72 e2 3e 1a 74 d0 3d 14 fb f1 3e 4c 87 49 be
       0.44227657 0.101783946 0.4726187 -0.19680518
0000d0 b9 9f 4d be ec 2b 38 3e 0d da dd 3e d4 b2 f9 3c
       -0.2008046 0.17985505 0.43330422 0.03048078
0000e0 df 86 fe 3e 61 b1 60 be 2b b7 33 3e f9 c5 e9 bd
       0.49712273 -0.21942665 0.17550342 -0.114147134
0000f0 25 e6 b5 bd 02 b2 37 3e 75 29 4c be 77 c7 1e bd
       -0.08881787 0.17938998 -0.1993769 -0.038764443
000100 c5 e4 86 3d 60 5b 06 3d a2 a6 00 bf d3 c4 10 bd
       0.06586603 0.032801986 -0.5025426 -0.035343956
000110 5c bb b6 be b5 89 9f 3e cb 48 5a be 8c 00 02 bf
       -0.3568982 0.3115975 -0.21316831 -0.50782084
000120 f2 f2 f6 3e cc ea ad 3e b4 84 eb 3c 21 b6 ef bd
       0.48232228 0.33968198 0.028749801 -0.1170466
000130 f7 61 12 bf 04 4d a8 be 7e 96 2d be a3 31 04 3e
       -0.5718073 -0.32871258 -0.1695194 0.1290956
000140 de e9 95 bc d1 e3 81 bc a1 02 d7 be 64 3e 8b be
       -0.018299993 -0.015855702 -0.41994193 -0.27196038
000150 0b 68 95 3d f5 9d 21 3e 01 c7 f1 3c bb 0c 83 3b
       0.07295235 0.15782912 0.029513838 0.0039993203
000160 10 be 25 bd c5 4d 75 3e b3 aa 51 be 15 34 06 bf
       -0.04046446 0.23955448 -0.20475273 -0.5242322
000170 72 fe 08 3e 01 f1 f6 be 9a 78 b1 3e ed 2c 83 3e
       0.13378313 -0.48230746 0.34662324 0.25620213
000180 82 00 5d 3d cf 8e 91 be 37 9c fe bd 3e 93 0a bf
       0.053955562 -0.28429267 -0.12432139 -0.54130924
000190 1d ae 25 bf 67 4d bc bd 65 3c 84 3e 3d 42 96 3e
       -0.647188 -0.09194451 0.25827327 0.2934741
0001a0 7f 9b 94 bd d7 73 09 3f 84 83 bc bd ff 87 d2 be
       -0.07256221 0.5369238 -0.09204772 -0.41119382
0001b0 db 35 11 bf fc e5 04 bf 7b d0 28 3d 32 46 13 be
       -0.567228 -0.5191343 0.041214447 -0.14382246
0001c0 28 e9 df be d3 83 52 bd b0 3c 84 be c2 87 0a 3e
       -0.43732572 -0.05139525 -0.2582755 0.1352835
0001d0 2a 9b da be e4 e2 e2 3e ec 64 a6 3d a0 a1 8f bd
       -0.42696506 0.4431373 0.08124718 -0.070132494
0001e0 1b 9d 89 be 9a 55 ca 3c 72 af d4 3e d9 21 eb 3e
       -0.26877674 0.024699021 0.41540104 0.4592426
0001f0 c5 56 89 3e eb e5 99 be 0b 46 33 be e0 ce 8f be
       0.26824012 -0.30058226 -0.17507188 -0.2808752
000200 d6 a2 ca be 99 74 a0 3e 01 e1 9e 3e c7 48 9b be
       -0.3957736 0.31338957 0.3103104 -0.30328962
000210 e8 7a ee 3c 16 01 90 3e 6b 62 b5 3d 9d c9 62 be
       0.02911134 0.28125829 0.08856662 -0.22147222
000220 03 bd 08 be 11 4b 12 3d 17 e1 3a bd e6 43 ac 3e
       -0.13353352 0.03571612 -0.04562482 0.33645552
000230 84 da 8c 3e c0 9f 26 be 72 32 29 3e e5 ef 4e bd
       0.27510464 -0.16271877 0.1652315 -0.05052175
000240 62 36 06 bd 26 3a b8 3e 85 05 50 be a5 d8 62 3e
       -0.032766707 0.35981864 -0.20314606 0.22152956
000250 53 90 91 bd 92 b4 a3 be 5c 39 9c be 70 f5 5b 3e
       -0.07107606 -0.31973702 -0.30512512 0.21480346
000260 fb 10 de bd 8c 8c 50 3e de a4 82 bc 0a 0c db bd
       -0.108430825 0.20366114 -0.015947755 -0.10695656
000270 a9 d1 ab 3e a5 16 ae 3e 70 0c 9e bd 5a dd 70 3e
       0.33558396 0.3400165 -0.07717216 0.23521939
000280 79 66 35 3e 30 92 01 3f ff a0 38 3d cd c2 d0 be
       0.17714871 0.5061369 0.045075413 -0.4077362
000290 9a b8 c8 be fb 91 90 be 9e 85 b6 be cc f8 28 bb
       -0.3920334 -0.28236374 -0.35648817 -0.002578306
0002a0 bf 8d dc bd c3 c6 18 be 22 c3 09 be 26 fc 13 3e
       -0.107692234 -0.14919572 -0.13453344 0.14451656
0002b0 9d 71 ae be c9 c4 aa bd 62 4d c8 3e 29 ec 13 3e
       -0.34071055 -0.08338315 0.39121538 0.14445557
0002c0 30 00 bd be 68 d5 8e 3e e5 c0 6f be c5 1e c2 3d
       -0.36914206 0.2789719 -0.23413427 0.09478525
0002d0 77 29 c2 3e d3 60 a3 be 9b 72 b8 be 9c a1 c9 3e
       0.3792226 -0.3190981 -0.36024937 0.3938111
0002e0 dc 57 0e 3e 30 b5 18 3e 45 eb 13 bf 40 0d e8 3e
       0.13900703 0.14912868 -0.5778087 0.4532261
0002f0 48 f4 54 be 89 08 20 be 4a 49 32 3e 66 c1 02 3f
       -0.20796311 -0.15628256 0.1741077 0.5107635
000300 f6 e3 28 3e 08 be eb be cc f0 c8 be 9c 88 49 3e
       0.1649321 -0.4604342 -0.39246213 0.19681019
000310 75 a1 86 be 0f 7d 8f 3e 3e 59 e9 3d e5 0f b1 3d
       -0.26295057 0.280251 0.11393975 0.0864561
000320 c1 4c 1e 3e d6 b7 0a be e8 2f f4 3c 14 a6 c5 3e
       0.15458967 -0.1354669 0.029808 0.3860327
000330 76 32 de be a7 1e a2 3d fd 26 26 be e8 c1 5e be
       -0.43397874 0.07916003 -0.1622581 -0.21753657
000340 8f a1 c6 be 58 97 bd 3e f3 e5 ad 3e 25 da 2f 3e
       -0.38795134 0.3702953 0.339645 0.1717306
000350 99 f8 9b be 6e b4 73 be 52 a1 32 be 85 76 0c 3e
       -0.30463102 -0.23799297 -0.17444351 0.13717087
000360 4a 0a d6 bd de 67 9a 3e 6c 14 b5 bd ab 4f 83 3e
       -0.10451181 0.3015737 -0.08841786 0.2564672
000370 2d 9a af 3e e0 87 77 3d c2 39 94 3e 9e 4d c4 be
       0.34297314 0.060432315 0.28950316 -0.38340467
000380 5f 53 82 bd 99 b8 4e bd dc a2 8c be 45 c6 2e 3e
       -0.06363558 -0.050469015 -0.27468002 0.17067821
000390 fe 45 88 bd 23 ec 61 3d 8c 2d 53 3e 2b 97 a7 bd
       -0.06653975 0.05515684 0.20622844 -0.0818313
0003a0 4e 44 48 3e c8 cf 7b be 18 3e bb 3e e7 07 a9 3e
       0.19557306 -0.24590981 0.3657081 0.33013842
0003b0 86 15 bf be 37 f5 c2 be 71 f4 6d 3e 35 9d cd bd
       -0.3732111 -0.3807771 0.23237778 -0.100397505
0003c0 74 a0 80 be ec 35 e5 bd b3 f7 c0 3e 5a 46 d6 bc
       -0.25122416 -0.111919254 0.3768898 -0.026156593
0003d0 7a b5 0c be 95 cb 19 bd bc 84 ea be 42 eb eb 3d
       -0.13741103 -0.037547667 -0.45804393 0.11519481
0003e0 24 a0 cc 3d a4 31 b1 3d 75 3d 5a be 9a ab 49 bf
       0.09991482 0.08652046 -0.21312506 -0.7877747
0003f0 b6 cc 9f 3e 22 5d 60 be 7b d0 ad 3d cb 6f 6f 3c
       0.3121087 -0.21910527 0.0848703 0.014614056

arith.constant3 f4 [16]
000000 42 07 3d 3c 8d 5a f6 bb ab 9c 30 3c a5 a8 d6 3d
       0.011537375 -0.0075181187 0.01077954 0.10481385
000010 bc 79 25 3e 8b 46 1c bc 49 5b 44 3d 8a 3f 2f 3e
       0.16159719 -0.009538303 0.04793862 0.17114082
000020 39 e7 1a 3e 1e e9 a5 bd 3f ca 18 3e 0f 20 ad bd
       0.15127267 -0.08101104 0.14920901 -0.0845338
000030 a6 eb 60 3d bb 43 88 bc 83 c6 13 bd e1 83 93 3c
       0.05491223 -0.016633859 -0.036077987 0.01800722

sequential_4_1/dense_13_1/Add/ReadVariableOp f4 [32]
000000 26 51 01 3d 73 fe 05 3c b6 28 4b bd 16 1b 50 3c
       0.03157153 0.008178341 -0.04959937 0.01270177
000010 0d ae db 3d 37 72 04 3e 90 e0 0e be 3f ca 7b bc
       0.10726557 0.12934195 -0.13952851 -0.015368043
000020 0b 5b 12 bd 86 8e 0f bb 4e 78 2e 3c 22 a8 f3 3d
       -0.035731357 -0.002190502 0.0106488 0.11897303
000030 41 a3 9d bd 36 b6 0f 3e de f8 ac 3d eb bc 16 bd
       -0.07697154 0.14034352 0.08445905 -0.03680126
000040 a8 0c 9b bd 6e 06 50 bc 6b b7 b8 3d 34 22 cc 3d
       -0.07570773 -0.012696845 0.09019359 0.09967461
000050 cc 90 0e 3d d1 81 54 3e 79 23 71 3e f8 c7 0d 3d
       0.034806058 0.20752646 0.23548688 0.034614533
000060 d6 b8 1e 3e 4f 6b 13 3c f3 2a b5 3c a3 25 fe 3c
       0.15500197 0.008997752 0.022115206 0.031023806
000070 bf 33 d6 3c bc ed da bc 90 9b e1 bd 07 b2 84 3c
       0.026147721 -0.026724689 -0.11015999 0.016198171

sequential_4_1/dense_13_1/MatMul f4 [32, 8]
000000 a5 00 8f 3e 55 2d 2a be 33 12 2b 3d 58 a1 c0 3e
       0.2793018 -0.16618855 0.041765403 0.37623096
000010 d5 02 0e be 09 7b b4 3e 5e 9d 27 3f 15 4d 7d 3d
       -0.13868268 0.35250118 0.654745 0.06184109
000020 11 1a d7 be 30 0b 02 3f 19 d4 1a 3e 41 9b 8c bd
       -0.42012075 0.5079832 0.15119971 -0.0686555
000030 06 7c fb bc c5 2c 83 bd 18 53 22 bd 74 aa e6 bd
       -0.030698787 -0.064050235 -0.039630026 -0.1126298
000040 59 24 ef 3d 23 32 cd 3d 7d 60 65 bc 7d 52 68 3e
       0.11676855 0.100193284 -0.014000055 0.22687717
000050 f6 2f 91 3e 10 ed ae 3e d3 82 bb bc 99 a2 99 3e
       0.28356904 0.3416524 -0.02288953 0.30006865
000060 85 0e 9c 3e 26 01 99 be 3e 18 aa be 66 de df be
       0.30479828 -0.2988369 -0.3322162 -0.43724364
000070 14 f8 12 3e e2 9f e8 3e 59 63 c9 3d c3 93 ab 3e
       0.14352447 0.4543448 0.09833402 0.3351117
000080 62 2a 24 bd f2 f4 9f bd fc 4e 5a bd eb a6 91 bd
       -0.040079482 -0.078103915 -0.05329798 -0.07111915
000090 a5 90 7c be 1b 9c 6b 3e ca 00 13 3f 73 c7 75 3e
       -0.24664553 0.23008768 0.5742308 0.24001865
0000a0 e2 9b 0c 3e 82 ed 13 be 60 ff 67 3e e8 71 2d be
       0.1373134 -0.14446071 0.22656012 -0.16937983
0000b0 b2 24 97 bd a8 e8 f9 be 12 4a f5 be 13 5a 48 be
       -0.07380046 -0.48810315 -0.47908074 -0.1956561
0000c0 13 2f 00 bc 78 10 e3 bd 73 8b e8 be f4 56 80 3e
       -0.007823723 -0.110871255 -0.4541889 0.2506634
0000d0 01 60 0d be 3e 66 b7 3b 43 53 d8 be dc 3d cb bd
       -0.13806154 0.005596905 -0.42251024 -0.09923908
0000e0 71 5e 67 3e dd 4f 2d 3e e6 86 42 bc 62 a2 95 bd
       0.2259462 0.16924997 -0.011872983 -0.07306363
0000f0 98 ab 21 bd da 90 6d be b1 0e fc 3e ec b5 3e be
       -0.039470285 -0.23199788 0.4922996 -0.18624085
000100 ce 03 32 3d b2 75 6c be 41 70 df 3e 12 83 23 3e
       0.04346066 -0.23091772 0.4364033 0.15967968
000110 c8 59 90 be f6 2a 9d be 8f a6 cc be 3b c8 bd bd
       -0.28193498 -0.3069684 -0.39970824 -0.092667066
000120 27 43 c3 3c c6 0c 08 3f f6 26 1f 3d 43 16 3f be
       0.023835732 0.5314449 0.038855515 -0.18660836
000130 1f b7 ed 3c 76 5d c9 3d d6 c6 a6 be 56 1b a3 3e
       0.029017983 0.098322794 -0.32573575 0.31856793
000140 50 8f 83 be 62 8d a7 be a3 0f 47 3e 63 4d 13 3e
       -0.25695276 -0.32725054 0.19439559 0.1438499
000150 3e 8d ea 3d 79 4f c1 be a5 ce 5c be 70 ee 96 bb
       0.11452721 -0.37755945 -0.21563204 -0.0046060607
000160 4f e5 c3 bc f6 63 e1 bd de e4 5b 3e 1a fe 27 bf
       -0.023913054 -0.11005394 0.21474025 -0.65622103
000170 1b 87 af 3c 29 70 63 bd 49 15 31 be 4e 18 47 be
       0.021426728 -0.055526886 -0.17293276 -0.19442865
000180 12 78 6e 3e 5e a1 1f 3c 8a bb 09 3e db ee 1c 3d
       0.2328799 0.009743063 0.13450447 0.038313728
000190 f1 45 c9 3e 40 58 a5 3d 5a b1 f2 be c3 96 9d bd
       0.39311174 0.08073473 -0.47400934 -0.07694771
0001a0 00 af 84 be f6 c2 76 be fe 15 15 be e3 05 b2 3e
       -0.25914764 -0.24097809 -0.1455917 0.34770116
0001b0 d0 10 04 3e 02 fb 2f 3f ca b1 9f be 85 5f 15 be
       0.12897038 0.6874238 -0.3119033 -0.14587219
0001c0 ff b6 d9 be ad 83 96 be e9 ac 2a 3e 0d 65 d7 3e
       -0.42522427 -0.29397336 0.16667522 0.42069283
0001d0 eb bd 31 3e e2 f3 66 3e ee ba 66 be fd 2a b9 bd
       0.17357604 0.22553971 -0.22532246 -0.090414025
0001e0 21 e1 2c be 82 55 96 bd 57 c9 50 3e ca 6c 93 3e
       -0.16882755 -0.07340528 0.20389305 0.28793937
0001f0 1e 78 37 bd 01 52 68 be b8 f0 59 3e 41 c8 73 3d
       -0.044792287 -0.22687532 0.21283233 0.05951715
000200 7f e7 b4 be f6 2b 49 bd 56 a3 6a be 60 0a 92 3d
       -0.35332868 -0.04911419 -0.2291387 0.07130885
000210 42 19 73 be c6 c5 60 3e fe 9b 8f 3d d8 2b e2 be
       -0.23740104 0.21950445 0.07012175 -0.44174075
000220 87 46 93 3d 42 e0 4f bc 28 54 cb 3d 77 f8 07 bf
       0.071911864 -0.012687745 0.09928161 -0.531135
000230 d8 45 07 3e 6a 29 23 3e 00 97 0f 3f 67 3d cc 3d
       0.13210237 0.15933767 0.5608978 0.09972649
000240 5f 3c 4e 3e f2 89 c7 3d 40 69 0b 3e a9 87 fb bd
       0.20140217 0.09743108 0.13614368 -0.122817345
000250 26 1b ea 3e 9c 7b e5 3e 24 dd 87 3e b6 64 4d 3e
       0.45723838 0.4482087 0.26535904 0.2005795
000260 bf e1 87 be 3a be d4 3c 09 f6 3e 3d 49 15 29 be
       -0.26539418 0.025969613 0.046621356 -0.16512026
000270 6e ca 8f 3e 9e 3f c5 be 0f e9 cb bd 16 70 c3 3d
       0.2808413 -0.385251 -0.09956562 0.09542863
000280 6c af 5f 3e c2 fa aa 3e 2f 01 6a 3e 0b 86 a2 be
       0.21844262 0.33394438 0.22852014 -0.31742892
000290 63 9c 2b be 3b 6c 84 bd b0 ed 2e 3e da 0e 0f bf
       -0.16758876 -0.06465956 0.17082858 -0.55882037
0002a0 99 15 fd 3e 81 3e aa 3b 9a 12 90 be 5d 2a 29 bd
       0.4943054 0.0051954393 -0.28139192 -0.041300166
0002b0 89 08 e9 bc 97 7c 08 3f 60 36 10 bf be 3b 88 3d
       -0.028446453 0.5331511 -0.5633297 0.0665202
0002c0 c7 de 58 bd cd 7e 07 3e f7 5e c1 3d 52 a0 24 be
       -0.052946832 0.13231964 0.09441941 -0.16076782
0002d0 98 10 6b 3e 80 2c 11 3f 95 bc 12 3f 4e 8b f2 bd
       0.22955549 0.56708527 0.57319003 -0.118429765
0002e0 d2 49 68 be cd 7e e3 3d 82 63 c6 3e 08 f8 97 bd
       -0.2268441 0.1110817 0.38747793 -0.07420355
0002f0 20 09 ab bc 0e 3e 65 be e1 07 29 3f ec 58 b4 bd
       -0.020878375 -0.22386953 0.6602765 -0.08806023
000300 0e 1c 72 be 35 08 4a 3e f1 bf 70 3e 10 33 b1 bd
       -0.23643515 0.19729693 0.2351072 -0.086523175
000310 fa a9 9d 3e 34 23 e7 3e 98 57 f3 3e d6 b5 8f be
       0.30793744 0.45144045 0.47527766 -0.28068417
000320 f1 03 1e be 83 13 79 be 50 65 35 be f3 53 65 3e
       -0.15431191 -0.2432385 -0.17714429 0.22395305
000330 b5 45 98 be aa 7c d8 be e4 fc 3f 3e 8a 2a aa be
       -0.29740682 -0.4228261 0.18748814 -0.3323558
000340 bf 58 85 3e e0 c9 cc bd 9e 15 d6 be f2 62 3f 3e
       0.2604427 -0.09999442 -0.41813368 0.18690088
000350 01 4d 41 3a 03 61 42 3e d5 4f e2 be 07 e8 d7 be
       0.000737384 0.1898232 -0.44201532 -0.4216921
000360 39 d5 3c 3e 7a 91 09 3f 60 b4 b1 be 4a 94 fc bd
       0.18440713 0.53737605 -0.34707928 -0.123329714
000370 9c 44 91 be 77 4b 9b bd e0 96 7f bd 95 c9 5e 3e
       -0.28372657 -0.07582753 -0.062399745 0.21756585
000380 58 22 26 3d d1 ee 5b 3e b2 15 8c 3e a1 4c c6 3e
       0.040560097 0.2147782 0.27360302 0.38730338
000390 7a f8 89 be 2e c4 d3 3e 9e 35 38 bd b1 4d 0c 3e
       -0.26947385 0.4136061 -0.04497301 0.13701512
0003a0 02 a8 ed 3c a2 29 24 be cf 88 01 be c8 0a 89 be
       0.029010776 -0.16031507 -0.12649845 -0.26766038
0003b0 7a 51 b5 3e 35 22 bd 3e 23 e2 8a be 01 4d 90 3e
       0.35413724 0.3694016 -0.27125654 0.2818375
0003c0 c4 f5 2c be 04 d0 27 bd d7 e4 dd 3d 1b 7a f9 bd
       -0.16890627 -0.040969864 0.10834663 -0.12181493
0003d0 3b 2e 90 be 5e 22 12 3e 2f 76 28 bd b3 6c a8 3d
       -0.2816027 0.14270923 -0.041128334 0.08223858
0003e0 a7 f1 a9 be 0d a5 86 3e eb f3 dd 3e 78 d5 0e 3e
       -0.3319218 0.262978 0.43350157 0.1394862
0003f0 5a 48 ad bd f3 38 e4 bd c0 d1 c4 bc b7 c2 09 be
       -0.084610656 -0.11143675 -0.024025798 -0.13453184
